data.pth (torch, 8535 bytes, 6 tensors)

l1.weight f4 [8, 114]
000000 ec 35 48 3e cb 91 9f 3e 02 89 01 3f 09 26 ba bd
       0.1955182 0.3116592 0.5059968 -0.09089286
000010 40 69 3b 3d e4 dd 2e 3f 51 8d 8a be 86 d7 fa be
       0.04575467 0.6830733 -0.2706094 -0.48992556
000020 52 89 1f bf 23 7f 10 bd 24 ac 2b bb e3 26 1c 3f
       -0.6231891 -0.035277497 -0.0026195133 0.60996836
000030 63 43 39 3f 8c 7e cd bd 5d b0 35 3f ae b6 8f be
       0.7236845 -0.100339025 0.70972234 -0.2806906
000040 22 3f 82 3e 74 d4 e3 be 4c 06 24 bf 66 07 3e 3d
       0.25438792 -0.44498026 -0.6407211 0.046393774
000050 07 95 75 3f 75 26 7f bf 35 75 7f be 06 dd 4d bf
       0.9593052 -0.99668056 -0.24947055 -0.8041538
000060 d9 50 09 bf 35 e1 0f 3f 39 08 42 3f cb 0a 7c 3e
       -0.5363899 0.56203014 0.75793797 0.24613492
000070 a0 d5 32 3f 73 30 c4 be 31 40 c5 3e ec 4c de be
       0.69857216 -0.38318214 0.38525537 -0.43418062
000080 2d bd ab 3c d2 7b ac 3d 25 0e 0c bd 7f 59 f5 bd
       0.02096423 0.08422054 -0.034193177 -0.11979961
000090 e3 dd a3 3e 77 e0 8d be c5 17 b5 3d 64 75 a2 bd
       0.32005224 -0.27710316 0.08842424 -0.07932547
0000a0 cd 64 8d be 2f 0e 2d be 9f d8 b7 be ee 53 cd be
       -0.27615967 -0.16899942 -0.35907456 -0.40103096
0000b0 fd 64 1a be fc 9a 06 bf 0a 08 45 3e 91 95 06 bf
       -0.15077586 -0.5258024 0.19241348 -0.5257197
0000c0 8e 94 06 bf 7a 49 28 3d 62 80 4a be 66 ce 3c 3f
       -0.52570426 0.041085698 -0.19775537 0.7375244
0000d0 d0 c5 9b be 06 93 14 bf db f8 0d 3f 47 84 4e 3f
       -0.30424356 -0.5803684 0.5545785 0.8067059
0000e0 da ea c5 3e f3 87 2e 3e a1 33 c4 be ab 8a 07 be
       0.3865574 0.17044048 -0.3832064 -0.13236491
0000f0 8e f0 88 3e 9d c0 e8 3d a4 3e 9a 3e 84 08 11 3f
       0.2674603 0.11364863 0.30125916 0.5665362
000100 60 7e c4 3e 9c fd 3b 3f c8 a7 5b 3f 4b 7d 4e bd
       0.38377666 0.7343385 0.8580289 -0.050412457
000110 a1 a7 23 3e 06 f0 81 3f 99 13 13 bf ba b8 8a 3f
       0.15981914 1.0151374 -0.5745178 1.0837624
000120 f3 da 90 3d 48 d9 c4 be 18 4c e1 bd 45 a2 d1 be
       0.07073011 -0.38447022 -0.11000842 -0.40944114
000130 6b 95 16 be ac 3a 48 3f c3 f7 b6 3e 6a 18 5a 3f
       -0.14705436 0.78214526 0.35735902 0.851935
000140 29 4b 23 3f a3 c9 19 3f ca d2 c6 be 30 99 54 be
       0.6378656 0.600733 -0.38832694 -0.20761561
000150 1e 25 cb be 8d 83 38 bd 59 83 9d be 0d 80 63 3f
       -0.39676756 -0.04504733 -0.30764273 0.88867265
000160 f1 8b eb 3e f5 6e 0a 3f 83 a2 35 3f 55 5d de be
       0.46005204 0.54075557 0.709511 -0.43430582
000170 b3 4d 5e 3e b8 92 42 3f 47 28 18 3f 19 a3 17 3f
       0.21709327 0.76005125 0.5943646 0.5923324
000180 54 24 17 bf 19 73 08 3f 13 9d d7 3e 9c 70 8f be
       -0.5903981 0.53300625 0.42112026 -0.28015602
000190 73 cb 84 3f a3 16 13 bd bd 21 18 3f 80 c1 e1 3e
       1.0374588 -0.03591026 0.5942648 0.4409294
0001a0 be 3a 35 3f 5b 9a 3d bd 5f 0c 5e 3f 96 e6 98 3d
       0.7079276 -0.046289783 0.86737627 0.07465856
0001b0 2f 9a a7 3c bc 66 5e be 55 c6 45 bf 92 ae 0f 3f
       0.020459263 -0.21718878 -0.77255756 0.5612575
0001c0 48 46 e1 3e d2 dd 34 be 64 36 87 be 25 ee 78 be
       0.43998933 -0.17662743 -0.26408684 -0.24309595
0001d0 04 35 94 3e 0a d9 18 3f af fd 8a be b8 f1 1a 3f
       0.28946698 0.59706175 -0.2714667 0.60525084
0001e0 80 21 7d 3e ea d6 00 bf 4c cc ed be 90 4e 82 bb
       0.2471981 -0.5032793 -0.4644493 -0.0039766505
0001f0 cf d2 ed 3e 69 94 97 3e f9 a1 f5 3e ea c1 ed be
       0.46449897 0.29605415 0.47975138 -0.46437007
000200 99 2a 1e 3f 26 00 1d be 0a bb 45 3f 21 59 37 3f
       0.6178375 -0.15332088 0.77238524 0.71620375
000210 43 d5 02 3f 17 56 82 3e d3 04 20 3f 05 85 88 3f
       0.5110666 0.25456306 0.6250736 1.0665594
000220 05 cc a5 be c3 9e 9d 3e 05 1a cc 3e a4 c8 d2 3e
       -0.32382217 0.30785188 0.398636 0.41168702
000230 ca e3 20 bf 7a 91 a5 3c 53 eb 10 3f 32 63 6e 3f
       -0.6284758 0.02021097 0.56609076 0.9312011
000240 e6 31 47 3e 79 ec 48 3f 19 17 64 3f 01 69 11 3f
       0.19452628 0.7848583 0.89097744 0.5680085
000250 97 14 10 3f 3a 59 6e be 8a de 04 3f 37 40 87 3e
       0.5628142 -0.23276225 0.5190207 0.2641618
000260 c0 f2 f1 3d ed d7 bf 3e 19 1a 4d be 16 40 c2 be
       0.11813879 0.37469426 -0.20029487 -0.3793952
000270 f6 cb 11 bf c1 22 de 3e b3 0f bf be b5 94 04 bf
       -0.56951845 0.4338589 -0.37316665 -0.5178941
000280 9f a3 97 be 2d 91 0b bf 5a 52 0a bf 45 c9 61 3e
       -0.2961702 -0.54518396 -0.5403191 0.22049434
000290 ca b0 bb 3e c8 26 64 3f f6 e4 22 bf e1 e4 4a 3f
       0.36658317 0.89121675 -0.63630617 0.7925549
0002a0 b2 44 0c 3f 39 fc 80 3f a3 32 99 3e 17 0c 88 bd
       0.5479232 1.0076972 0.29921445 -0.06642931
0002b0 19 64 01 bf df fa 1f be 25 1f 76 be 5d eb 9e bd
       -0.5054336 -0.15623043 -0.24035318 -0.07759736
0002c0 e4 e5 41 be 52 d5 0c 3e 7d 48 a0 3e bc b7 13 3f
       -0.18935353 0.1375325 0.31305304 0.5770223
0002d0 3c 68 2b bf 5f b2 50 3e 88 d7 b1 be b4 39 da 3c
       -0.66955924 0.20380543 -0.3473475 0.026638843
0002e0 59 0d 20 3f 91 26 b9 bf e8 e8 ec be 83 57 0f 3f
       0.62520367 -1.4464895 -0.46271443 0.5599291
0002f0 55 18 f8 3e 1f a2 8e 3e cc 5e 9a be e2 3f c0 bc
       0.48456064 0.27858064 -0.3015045 -0.023467962
000300 f8 2a de 3d f0 c8 81 3f 9e 62 a5 3e 48 db ae 3e
       0.108480394 1.0139446 0.323018 0.34151673
000310 35 44 9f 3e 05 f3 9d be 74 b6 98 3e b9 61 6f be
       0.31106725 -0.30849472 0.298267 -0.23377122
000320 bf 4b 05 3f 88 8c 1b bf 6b 3b 98 3e fc d3 67 3f
       0.52068704 -0.6076131 0.29732832 0.9055784
000330 fc 75 e9 3e e7 aa 49 bf 87 3a 8c 3c 00 2c 1c bf
       0.45597827 -0.787764 0.017117752 -0.6100464
000340 3a 64 ac 3d 40 e9 00 3f 3d 93 2f bf ed 0c 1e 3e
       0.08417554 0.5035591 -0.6858404 0.15434618
000350 6a 8a 4b 3f 6e d2 69 3e 00 c1 91 3e 13 52 9e be
       0.7950808 0.22834179 0.2846756 -0.30921993
000360 3f 03 5e be 2a 46 38 3f 54 d8 14 3f 6d d2 00 3f
       -0.21680926 0.7198206 0.5814259 0.50321084
000370 fc 3a 5a 3f 41 45 6f 3f e4 f4 80 3f ae 4a a8 be
       0.85246253 0.9346505 1.0074735 -0.32869476
000380 30 53 06 3f b2 96 b8 3e 32 b4 7c bd 09 1d 26 be
       0.52470684 0.3605247 -0.061695285 -0.16222014
000390 f7 2e f7 be eb 46 4a be 11 8c d7 3c 56 6b 1b bd
       -0.4827802 -0.19753616 0.026311906 -0.03794416
0003a0 6a 44 c0 be 26 a1 d2 3e 30 d4 ac 3e 58 d3 e6 3e
       -0.37552196 0.41138572 0.33755636 0.45083117
0003b0 26 90 e5 3e 1c b7 3f 3f 64 a2 ef 3d d0 2c 55 be
       0.4483654 0.7488878 0.117008954 -0.20817876
0003c0 ff 99 d5 3d 64 59 31 3f d0 c7 09 3f b5 82 11 3f
       0.10429763 0.69277024 0.53820515 0.5684007
0003d0 7a 68 6e be b9 53 e0 bd 79 1b 8e 3c b6 c3 a8 3e
       -0.23282042 -0.10953469 0.017347084 0.32961816
0003e0 b6 bf ad 3e ac 94 79 3c c9 f7 9a 3e 9a ee 96 bd
       0.33935326 0.0152332 0.3026717 -0.073697284
0003f0 c3 7a 22 3d 96 48 74 bd 1f 3b 76 3f 85 9a 25 3f
       0.039667856 -0.059639536 0.9618396 0.64688903

l1.bias f4 [8]
000000 4a 97 06 3f 41 2b 24 3f 7a 4b 8d 3f 1a 19 83 3f
       0.525746 0.641285 1.1038659 1.0242035
000010 92 23 7e 3f d3 af 83 3f 31 b6 65 3f 81 d9 36 3f
       0.99273026 1.0288032 0.8973113 0.71425635

l2.weight f4 [8, 8]
000000 75 5e 0f 3f 38 08 93 be b2 78 76 3f 1f 09 e8 3f
       0.56003505 -0.28717208 0.96277916 1.8127784
000010 8e 83 45 3f 84 c9 a5 3f 76 30 f9 3d 92 26 8f bf
       0.7715386 1.2952123 0.12167446 -1.1183646
000020 f5 3a 07 3e 6a 4a 11 bf 7b 31 e7 3f d8 b2 b5 be
       0.13206084 -0.5675417 1.8061975 -0.3548801
000030 f5 b2 4d bd 70 aa be 3f a7 0e a1 3f 9f 17 6f be
       -0.050219495 1.4895763 1.2582597 -0.23348854
000040 ab 01 c4 3f e6 16 1f be 74 82 d8 be d0 3e d1 3e
       1.5313009 -0.15536079 -0.42287028 0.40868235
000050 a7 62 c1 3f 5d 66 c2 bf 03 95 ba 3f b8 5c 36 3f
       1.5108231 -1.5187489 1.4576725 0.7123523
000060 fc 42 b6 3f 59 08 c3 3f cf 25 00 bf da db 3f bf
       1.4239192 1.5236923 -0.5005769 -0.7494484
000070 e9 c0 27 3d 37 ae a1 3f 6c 9d 09 bf e3 53 ae 3f
       0.040955458 1.2631291 -0.5375583 1.361935
000080 ef ef 8e 3e 4d 84 b4 be a0 a1 75 3d f0 07 9d be
       0.2791743 -0.35257187 0.05996859 -0.30670118
000090 43 22 35 be 00 98 52 3c 8a 48 49 be dc 7d 60 be
       -0.17688851 0.012853622 -0.19656578 -0.21923012
0000a0 ad a7 89 bf 85 41 a5 3e 83 9f d8 3f 7d 04 4d 3f
       -1.0754296 0.3227655 1.6923679 0.80084974
0000b0 b2 f7 96 bd b2 2d 2e 3d 1c 6e 5a be 2d 0a d8 3f
       -0.07371463 0.042524047 -0.21331066 1.6878105
0000c0 46 7c 55 bf a6 8b 01 3c 6d ba e7 be ed 50 b2 3f
       -0.8339275 0.00790683 -0.4525942 1.3930947
0000d0 fe 12 b7 3f 4a 51 8c 3f c2 39 97 3f 00 55 62 bf
       1.4302671 1.0962307 1.1814501 -0.8841095
0000e0 4b 04 18 3e 58 fa f3 3f 31 e9 02 bf df 4a a2 3f
       0.14845388 1.9060774 -0.5113707 1.2679099
0000f0 a0 0f 3a 3d 46 0e 18 3e e6 6d 4c bf 43 25 d9 bd
       0.045425057 0.14849195 -0.7985519 -0.1060281

l2.bias f4 [8]
000000 66 58 ae 3e 5c cd 34 3f b8 39 1c 3e 4b 51 01 3f
       0.34051818 0.70625854 0.15256393 0.5051467
000010 96 91 72 be 56 dc 30 3f 89 be d3 3e c4 17 ed 3e
       -0.23688349 0.69086206 0.41356304 0.46307194

l3.weight f4 [23, 8]
000000 5c f4 b2 3d 08 ee 2d 3e 65 7f 89 3d 2c af 91 be
       0.08738014 0.16985333 0.06713752 -0.28453958
000010 15 2a 84 be 73 cc 01 c0 62 07 40 3c 58 f0 f6 3e
       -0.25813356 -2.0281036 0.01172051 0.48230243
000020 b3 b4 99 be eb 7c 80 bf 02 37 59 bd 95 d1 82 bd
       -0.30020675 -1.0038122 -0.053030975 -0.06387631
000030 a6 18 88 be 6a db 31 3e 4c 96 9c 3e 84 91 7b 3e
       -0.26581305 0.17368856 0.30583417 0.24567229
000040 5c 81 ad bf 07 bb f4 3e 73 d1 a5 3d 6f bd a7 3e
       -1.3555102 0.4779894 0.0809659 0.32761714
000050 a4 61 be 3d be 41 05 bf ad 8f 89 be 41 b4 a2 be
       0.09295967 -0.5205344 -0.26867428 -0.31778148
000060 84 52 96 be ba 9b af bf ef 66 e9 bf d6 b4 a2 3d
       -0.2935983 -1.3719399 -1.8234538 0.07944648
000070 56 03 4f 3e 8f 72 c8 3d 13 60 51 3e 28 94 68 3f
       0.20216116 0.09787475 0.20446806 0.9085107
000080 10 b8 91 bf d6 f6 cf bf 4e c2 e7 bf 49 8c 44 3f
       -1.1384296 -1.6247203 -1.8106172 0.7677656
000090 a6 80 09 3e 4b 50 4d 3e eb 15 b3 bf 76 fb 55 3f
       0.13427982 0.2005016 -1.3991064 0.83586824
0000a0 06 fc 7b 3e bd 83 e5 3e 74 a0 9e bf 5c 31 22 3f
       0.24607858 0.4482707 -1.2392716 0.63356566
0000b0 1e 0e f5 bd db 29 ec bf 2a 5e ef 3e 20 63 87 bf
       -0.11965583 -1.8450273 0.4675153 -1.0577126
0000c0 e2 e5 c6 be c8 20 2a bf 0a 81 17 3f cc 32 d3 3e
       -0.38847262 -0.6645627 0.59181273 0.41249692
0000d0 1e a4 2b 3e 81 0f 0f c0 2f 0c c6 bf 91 8d 33 be
       0.16761824 -2.2353213 -1.5472468 -0.17534472
0000e0 cc fb 07 bf 02 c2 2e be 54 da 4e 3f 8b 7a b2 bc
       -0.53118587 -0.17066196 0.8080189 -0.021786949
0000f0 dd 5a b3 3e a8 64 a6 bf 7a 12 3c bd 1d 80 b0 bf
       0.3503026 -1.2999468 -0.045916058 -1.3789097
000100 8e cd bb bf a9 4a c5 be a7 f6 ed bf 41 fe d9 3e
       -1.4672105 -0.38533524 -1.8590897 0.42576793
000110 20 b5 81 3c f0 10 48 3f 76 6a 2d bf 98 85 87 3d
       0.015833437 0.78150845 -0.6774057 0.06617278
000120 4a a1 6e 3e fb d2 6e be fa 28 b5 bf d0 83 9e bd
       0.23303714 -0.2332267 -1.415313 -0.07739985
000130 08 45 de 3d 92 93 0f be d9 f7 cf 3e 4f a7 45 3e
       0.108530104 -0.14021137 0.4061878 0.19302104
000140 f7 4f 67 3e 1c 5d 93 3e 6f 70 64 3e c0 65 f1 be
       0.22589098 0.28781974 0.22308515 -0.47147942
000150 74 33 85 bd 2c aa e8 be dc 3c 87 be 1a aa 50 bf
       -0.065039545 -0.4544233 -0.2641362 -0.81509554
000160 e2 d0 22 3e cc ba 52 bf 01 c0 86 bf dd 39 06 3f
       0.15899995 -0.8231628 -1.0527345 0.5243204
000170 73 8b 45 be 92 00 b2 bf 1e 5d df 3e 97 2c 07 3f
       -0.19291477 -1.3906424 0.4362573 0.52802414
000180 14 84 09 3d 7a 9c c1 3d dc f8 d1 bf 91 d3 c2 3e
       0.033573225 0.09453674 -1.6404071 0.38052037
000190 50 47 8a bd 96 5c 39 be e9 5c 6f bf e5 f4 92 3e
       -0.06751883 -0.18101725 -0.93501145 0.28702465
0001a0 ae 01 d3 bf ca 78 2a be 2a 15 c0 3e fa 89 71 be
       -1.6484888 -0.1664764 0.37516147 -0.2358779
0001b0 8d e6 a5 3e bb 6e 65 3e a0 a1 99 3e dd ad be bf
       0.3240246 0.22405522 0.30006123 -1.4896809
0001c0 c5 b4 ae 3e ff 53 f2 3e 8e 78 f3 bf e0 27 2b 3e
       0.3412229 0.4732971 -1.9021165 0.1671443
0001d0 0e 05 8c be 71 da b0 3e 27 94 60 be 9b d5 d2 bf
       -0.27347606 0.34541658 -0.21931516 -1.6471437
0001e0 7a ca e9 3e f3 9e 0b 3f 37 08 4f bf 51 80 e8 bf
       0.4566229 0.5453941 -0.8087191 -1.8164159
0001f0 0a 21 0a be 38 1b 63 be 28 81 31 3f dd 22 1a bf
       -0.13489166 -0.22178352 0.693377 -0.6020945
000200 3e 54 2d be a1 50 db 3e 78 69 2d be a1 18 c0 bf
       -0.16926667 0.42834952 -0.16934764 -1.5007516
000210 80 51 47 3c c4 90 13 3f cb bd 6b bf 7a f6 48 bf
       0.012165427 0.5764277 -0.92086476 -0.78501093
000220 d8 d5 9e bf 91 1e 97 3e ea 16 7f bf 73 6f 3c be
       -1.240901 0.29515508 -0.9964434 -0.1840189
000230 d4 5a d2 bd 0c a5 64 3f 5a 64 90 bf e2 b0 a3 bf
       -0.1027123 0.8931434 -1.1280625 -1.2788355
000240 13 b9 7c 3e f3 4d 24 be d7 11 0e bf 51 56 a0 be
       0.24679975 -0.1604536 -0.5549597 -0.31315854
000250 c0 98 89 bd 85 d4 0b 3f 79 25 d7 bf f6 a0 28 3e
       -0.06718588 0.54621154 -1.6808311 0.16467652
000260 40 1a 98 bf 96 2d 88 bf f1 b3 e4 bd 89 b9 25 3f
       -1.1883011 -1.0638912 -0.111671336 0.6473623
000270 c6 cf 78 3e a4 b8 0c bf 5e 05 c6 bf 4a b2 30 3f
       0.2429801 -0.5496924 -1.5470388 0.6902205
000280 52 f4 d0 bf ac c9 6d bf 5d 0e 86 bc 79 cc b7 3e
       -1.6324561 -0.9288585 -0.01636427 0.35898188
000290 fb f6 a1 3e 85 78 35 3f 73 22 9f bf 07 3d 42 bf
       0.31633744 0.70887023 -1.2432388 -0.7587437
0002a0 d9 1e 63 3e 50 62 b8 be 67 08 15 3f de 6a cb bf
       0.22179736 -0.36012506 0.58215946 -1.5891988
0002b0 ca d3 a7 be 0b c5 a3 bf a3 de 2d 3f 83 96 f2 bd
       -0.3277877 -1.2794508 0.6791784 -0.11845114
0002c0 1a f6 45 bf cf 18 88 bf 3e 7a f1 3e 89 8b 2d bd
       -0.77328646 -1.0632571 0.47163576 -0.0423694
0002d0 40 cc 41 bc 49 2a ec bf 54 6f 9e 3e e7 c2 dd 3e
       -0.011828482 -1.8450404 0.30944312 0.4331276

l3.bias f4 [23]
000000 ab 7a c8 be 19 78 78 be 1f 13 cb 3d 74 cf 84 bd
       -0.39156088 -0.24264564 0.099157564 -0.06484881
000010 8c a7 e0 bc 6a 2b 07 3e a7 fa 01 3d b0 6c 9d 3e
       -0.027423643 0.13200155 0.03173318 0.30746984
000020 10 e5 0f be aa bb 01 be cd 6b 74 be 8e c2 41 bc
       -0.14052224 -0.12669244 -0.23869248 -0.011826171
000030 c2 33 71 be 43 c0 b6 be 41 fd 27 3e fb 30 67 3e
       -0.235549 -0.3569356 0.16405202 0.22577278
000040 f9 23 8f 3d da 01 b2 3e 9c 54 70 be 9d 5f 99 3e
       0.06989283 0.34767038 -0.23469776 0.2995576
000050 1a fd 85 be 96 d6 a5 3c fb 39 99 be
       -0.26169664 0.020243924 -0.29927048
